…
': 0, 'local_master_rank': 0, 'is_master': True, 'is_local_master': True}
Using device: cuda
Set float32 matmul precision to high
Effective batch size: 64 (micro_batch_size=1, gradient_accum_step=32, num_devices=2)
Tokens per forward/backward pass: 524288
Total tokens in training dataset: 6463974020
Total tokens in validation dataset: 64859672
Wandb logging enabled. project: modern-lm, name: v24-b2-g32-8192-2B-134M-window_512-climbmix, id: lesgx58p
Mixed precision training is enabled with bf16
USE_FLASH_ATTN is set, trying to use flash attention if available
Model: ModernLM(
  (token_embedding): Embedding(49152, 576)
  (decoder_blocks): Sequential(
    (0): ModernLMDecoderBlock(
      (causal_self_attention): CausalMultiHeadSelfAttention(
        (attention_dropout): Dropout(p=0.0, inplace=False)
        (residual_dropout): Dropout(p=0.0, inplace=False)
        (w_q): Linear(in_features=576, out_features=576, bias=False)
        (w_k): Linear(in_features=576, out_features=192, bias=False)
        (w_v): Linear(in_features=576, out_features=192, bias=False)
        (rl_projection): Linear(in_features=576, out_features=576, bias=False)
        (rope): RotaryPositionalEmbeddings()
      )
      (mlp): SwiGLUFeedForward(
        (w_gate): Linear(in_features=576, out_features=1536, bias=False)
        (w_up): Linear(in_features=576, out_features=1536, bias=False)
        (rl_projection): Linear(in_features=1536, out_features=576, bias=False)
        (dropout): Dropout(p=0.0, inplace=False)
      )
    )
    (1): ModernLMDecoderBlock(
      (causal_self_attention): CausalMultiHeadSelfAttention(
        (attention_dropout): Dropout(p=0.0, inplace=False)
        (residual_dropout): Dropout(p=0.0, inplace=False)
        (w_q): Linear(in_features=576, out_features=576, bias=False)
        (w_k): Linear(in_features=576, out_features=192, bias=False)
        (w_v): Linear(in_features=576, out_features=192, bias=False)
        (rl_projection): Linear(in_features=576, out_features=576, bias=False)
        (rope): RotaryPositionalEmbeddings()
      )
      (mlp): SwiGLUFeedForward(
        (w_gate): Linear(in_features=576, out_features=1536, bias=False)
        (w_up): Linear(in_features=576, out_features=1536, bias=False)
        (rl_projection): Linear(in_features=1536, out_features=576, bias=False)
        (dropout): Dropout(p=0.0, inplace=False)
      )
    )
    (2): ModernLMDecoderBlock(
      (causal_self_attention): CausalMultiHeadSelfAttention(
        (attention_dropout): Dropout(p=0.0, inplace=False)
        (residual_dropout): Dropout(p=0.0, inplace=False)
        (w_q): Linear(in_features=576, out_features=576, bias=False)
        (w_k): Linear(in_features=576, out_features=192, bias=False)
        (w_v): Linear(in_features=576, out_features=192, bias=False)
        (rl_projection): Linear(in_features=576, out_features=576, bias=False)
        (rope): RotaryPositionalEmbeddings()
      )
      (mlp): SwiGLUFeedForward(
        (w_gate): Linear(in_features=576, out_features=1536, bias=False)
        (w_up): Linear(in_features=576, out_features=1536, bias=False)
        (rl_projection): Linear(in_features=1536, out_features=576, bias=False)
        (dropout): Dropout(p=0.0, inplace=False)
      )
    )
    (3): ModernLMDecoderBlock(
      (causal_self_attention): CausalMultiHeadSelfAttention(
        (attention_dropout): Dropout(p=0.0, inplace=False)
        (residual_dropout): Dropout(p=0.0, inplace=False)
        (w_q): Linear(in_features=576, out_features=576, bias=False)
        (w_k): Linear(in_features=576, out_features=192, bias=False)
        (w_v): Linear(in_features=576, out_features=192, bias=False)
        (rl_projection): Linear(in_features=576, out_features=576, bias=False)
        (rope): RotaryPositionalEmbeddings()
      )
      (mlp): SwiGLUFeedForward(
        (w_gate): Linear(in_features=576, out_features=1536, bias=False)
        (w_up): Linear(in_features=576, out_features=1536, bias=False)
        (rl_projection): Linear(in_features=1536, out_features=576, bias=False)
        (dropout): Dropout(p=0.0, inplace=False)
      )
    )
    (4): ModernLMDecoderBlock(
      (causal_self_attention): CausalMultiHeadSelfAttention(
        (attention_dropout): Dropout(p=0.0, inplace=False)
        (residual_dropout): Dropout(p=0.0, inplace=False)
        (w_q): Linear(in_features=576, out_features=576, bias=False)
        (w_k): Linear(in_features=576, out_features=192, bias=False)
        (w_v): Linear(in_features=576, out_features=192, bias=False)
        (rl_projection): Linear(in_features=576, out_features=576, bias=False)
        (rope): RotaryPositionalEmbeddings()
      )
      (mlp): SwiGLUFeedForward(
        (w_gate): Linear(in_features=576, out_features=1536, bias=False)
        (w_up): Linear(in_features=576, out_features=1536, bias=False)
        (rl_projection): Linear(in_features=1536, out_features=576, bias=False)
        (dropout): Dropout(p=0.0, inplace=False)
      )
    )
    (5): ModernLMDecoderBlock(
      (causal_self_attention): CausalMultiHeadSelfAttention(
        (attention_dropout): Dropout(p=0.0, inplace=False)
        (residual_dropout): Dropout(p=0.0, inplace=False)
        (w_q): Linear(in_features=576, out_features=576, bias=False)
        (w_k): Linear(in_features=576, out_features=192, bias=False)
        (w_v): Linear(in_features=576, out_features=192, bias=False)
        (rl_projection): Linear(in_features=576, out_features=576, bias=False)
        (rope): RotaryPositionalEmbeddings()
      )
      (mlp): SwiGLUFeedForward(
        (w_gate): Linear(in_features=576, out_features=1536, bias=False)
        (w_up): Linear(in_features=576, out_features=1536, bias=False)
        (rl_projection): Linear(in_features=1536, out_features=576, bias=False)
        (dropout): Dropout(p=0.0, inplace=False)
      )
    )
    (6): ModernLMDecoderBlock(
      (causal_self_attention): CausalMultiHeadSelfAttention(
        (attention_dropout): Dropout(p=0.0, inplace=False)
        (residual_dropout): Dropout(p=0.0, inplace=False)
        (w_q): Linear(in_features=576, out_features=576, bias=False)
        (w_k): Linear(in_features=576, out_features=192, bias=False)
        (w_v): Linear(in_features=576, out_features=192, bias=False)
        (rl_projection): Linear(in_features=576, out_features=576, bias=False)
        (rope): RotaryPositionalEmbeddings()
      )
      (mlp): SwiGLUFeedForward(
        (w_gate): Linear(in_features=576, out_features=1536, bias=False)
        (w_up): Linear(in_features=576, out_features=1536, bias=False)
        (rl_projection): Linear(in_features=1536, out_features=576, bias=False)
        (dropout): Dropout(p=0.0, inplace=False)
      )
    )
    (7): ModernLMDecoderBlock(
      (causal_self_attention): CausalMultiHeadSelfAttention(
        (attention_dropout): Dropout(p=0.0, inplace=False)
        (residual_dropout): Dropout(p=0.0, inplace=False)
        (w_q): Linear(in_features=576, out_features=576, bias=False)
        (w_k): Linear(in_features=576, out_features=192, bias=False)
        (w_v): Linear(in_features=576, out_features=192, bias=False)
        (rl_projection): Linear(in_features=576, out_features=576, bias=False)
        (rope): RotaryPositionalEmbeddings()
      )
      (mlp): SwiGLUFeedForward(
        (w_gate): Linear(in_features=576, out_features=1536, bias=False)
        (w_up): Linear(in_features=576, out_features=1536, bias=False)
        (rl_projection): Linear(in_features=1536, out_features=576, bias=False)
        (dropout): Dropout(p=0.0, inplace=False)
      )
    )
    (8): ModernLMDecoderBlock(
      (causal_self_attention): CausalMultiHeadSelfAttention(
        (attention_dropout): Dropout(p=0.0, inplace=False)
        (residual_dropout): Dropout(p=0.0, inplace=False)
        (w_q): Linear(in_features=576, out_features=576, bias=False)
        (w_k): Linear(in_features=576, out_features=192, bias=False)
        (w_v): Linear(in_features=576, out_features=192, bias=False)
        (rl_projection): Linear(in_features=576, out_features=576, bias=False)
        (rope): RotaryPositionalEmbeddings()
      )
      (mlp): SwiGLUFeedForward(
        (w_gate): Linear(in_features=576, out_features=1536, bias=False)
        (w_up): Linear(in_features=576, out_features=1536, bias=False)
        (rl_projection): Linear(in_features=1536, out_features=576, bias=False)
        (dropout): Dropout(p=0.0, inplace=False)
      )
    )
    (9): ModernLMDecoderBlock(
      (causal_self_attention): CausalMultiHeadSelfAttention(
        (attention_dropout): Dropout(p=0.0, inplace=False)
        (residual_dropout): Dropout(p=0.0, inplace=False)
        (w_q): Linear(in_features=576, out_features=576, bias=False)
        (w_k): Linear(in_features=576, out_features=192, bias=False)
        (w_v): Linear(in_features=576, out_features=192, bias=False)
        (rl_projection): Linear(in_features=576, out_features=576, bias=False)
        (rope): RotaryPositionalEmbeddings()
      )
      (mlp): SwiGLUFeedForward(
        (w_gate): Linear(in_features=576, out_features=1536, bias=False)
        (w_up): Linear(in_features=576, out_features=1536, bias=False)
        (rl_projection): Linear(in_features=1536, out_features=576, bias=False)
        (dropout): Dropout(p=0.0, inplace=False)
      )
    )
    (10): ModernLMDecoderBlock(
      (causal_self_attention): CausalMultiHeadSelfAttention(
        (attention_dropout): Dropout(p=0.0, inplace=False)
        (residual_dropout): Dropout(p=0.0, inplace=False)
        (w_q): Linear(in_features=576, out_features=576, bias=False)
        (w_k): Linear(in_features=576, out_features=192, bias=False)
        (w_v): Linear(in_features=576, out_features=192, bias=False)
        (rl_projection): Linear(in_features=576, out_features=576, bias=False)
        (rope): RotaryPositionalEmbeddings()
      )
      (mlp): SwiGLUFeedForward(
        (w_gate): Linear(in_features=576, out_features=1536, bias=False)
        (w_up): Linear(in_features=576, out_features=1536, bias=False)
        (rl_projection): Linear(in_features=1536, out_features=576, bias=False)
        (dropout): Dropout(p=0.0, inplace=False)
      )
    )
    (11): ModernLMDecoderBlock(
      (causal_self_attention): CausalMultiHeadSelfAttention(
        (attention_dropout): Dropout(p=0.0, inplace=False)
        (residual_dropout): Dropout(p=0.0, inplace=False)
        (w_q): Linear(in_features=576, out_features=576, bias=False)
        (w_k): Linear(in_features=576, out_features=192, bias=False)
        (w_v): Linear(in_features=576, out_features=192, bias=False)
        (rl_projection): Linear(in_features=576, out_features=576, bias=False)
        (rope): RotaryPositionalEmbeddings()
      )
      (mlp): SwiGLUFeedForward(
        (w_gate): Linear(in_features=576, out_features=1536, bias=False)
        (w_up): Linear(in_features=576, out_features=1536, bias=False)
        (rl_projection): Linear(in_features=1536, out_features=576, bias=False)
        (dropout): Dropout(p=0.0, inplace=False)
      )
    )
    (12): ModernLMDecoderBlock(
      (causal_self_attention): CausalMultiHeadSelfAttention(
        (attention_dropout): Dropout(p=0.0, inplace=False)
        (residual_dropout): Dropout(p=0.0, inplace=False)
        (w_q): Linear(in_features=576, out_features=576, bias=False)
        (w_k): Linear(in_features=576, out_features=192, bias=False)
        (w_v): Linear(in_features=576, out_features=192, bias=False)
        (rl_projection): Linear(in_features=576, out_features=576, bias=False)
        (rope): RotaryPositionalEmbeddings()
      )
      (mlp): SwiGLUFeedForward(
        (w_gate): Linear(in_features=576, out_features=1536, bias=False)
        (w_up): Linear(in_features=576, out_features=1536, bias=False)
        (rl_projection): Linear(in_features=1536, out_features=576, bias=False)
        (dropout): Dropout(p=0.0, inplace=False)
      )
    )
    (13): ModernLMDecoderBlock(
      (causal_self_attention): CausalMultiHeadSelfAttention(
        (attention_dropout): Dropout(p=0.0, inplace=False)
        (residual_dropout): Dropout(p=0.0, inplace=False)
        (w_q): Linear(in_features=576, out_features=576, bias=False)
        (w_k): Linear(in_features=576, out_features=192, bias=False)
        (w_v): Linear(in_features=576, out_features=192, bias=False)
        (rl_projection): Linear(in_features=576, out_features=576, bias=False)
        (rope): RotaryPositionalEmbeddings()
      )
      (mlp): SwiGLUFeedForward(
        (w_gate): Linear(in_features=576, out_features=1536, bias=False)
        (w_up): Linear(in_features=576, out_features=1536, bias=False)
        (rl_projection): Linear(in_features=1536, out_features=576, bias=False)
        (dropout): Dropout(p=0.0, inplace=False)
      )
    )
    (14): ModernLMDecoderBlock(
      (causal_self_attention): CausalMultiHeadSelfAttention(
        (attention_dropout): Dropout(p=0.0, inplace=False)
        (residual_dropout): Dropout(p=0.0, inplace=False)
        (w_q): Linear(in_features=576, out_features=576, bias=False)
        (w_k): Linear(in_features=576, out_features=192, bias=False)
        (w_v): Linear(in_features=576, out_features=192, bias=False)
        (rl_projection): Linear(in_features=576, out_features=576, bias=False)
        (rope): RotaryPositionalEmbeddings()
      )
      (mlp): SwiGLUFeedForward(
        (w_gate): Linear(in_features=576, out_features=1536, bias=False)
        (w_up): Linear(in_features=576, out_features=1536, bias=False)
        (rl_projection): Linear(in_features=1536, out_features=576, bias=False)
        (dropout): Dropout(p=0.0, inplace=False)
      )
    )
    (15): ModernLMDecoderBlock(
      (causal_self_attention): CausalMultiHeadSelfAttention(
        (attention_dropout): Dropout(p=0.0, inplace=False)
        (residual_dropout): Dropout(p=0.0, inplace=False)
        (w_q): Linear(in_features=576, out_features=576, bias=False)
        (w_k): Linear(in_features=576, out_features=192, bias=False)
        (w_v): Linear(in_features=576, out_features=192, bias=False)
        (rl_projection): Linear(in_features=576, out_features=576, bias=False)
        (rope): RotaryPositionalEmbeddings()
      )
      (mlp): SwiGLUFeedForward(
        (w_gate): Linear(in_features=576, out_features=1536, bias=False)
        (w_up): Linear(in_features=576, out_features=1536, bias=False)
        (rl_projection): Linear(in_features=1536, out_features=576, bias=False)
        (dropout): Dropout(p=0.0, inplace=False)
      )
    )
    (16): ModernLMDecoderBlock(
      (causal_self_attention): CausalMultiHeadSelfAttention(
        (attention_dropout): Dropout(p=0.0, inplace=False)
        (residual_dropout): Dropout(p=0.0, inplace=False)
        (w_q): Linear(in_features=576, out_features=576, bias=False)
        (w_k): Linear(in_features=576, out_features=192, bias=False)
        (w_v): Linear(in_features=576, out_features=192, bias=False)
        (rl_projection): Linear(in_features=576, out_features=576, bias=False)
        (rope): RotaryPositionalEmbeddings()
      )
      (mlp): SwiGLUFeedForward(
        (w_gate): Linear(in_features=576, out_features=1536, bias=False)
        (w_up): Linear(in_features=576, out_features=1536, bias=False)
        (rl_projection): Linear(in_features=1536, out_features=576, bias=False)
        (dropout): Dropout(p=0.0, inplace=False)
      )
    )
    (17): ModernLMDecoderBlock(
      (causal_self_attention): CausalMultiHeadSelfAttention(
        (attention_dropout): Dropout(p=0.0, inplace=False)
        (residual_dropout): Dropout(p=0.0, inplace=False)
        (w_q): Linear(in_features=576, out_features=576, bias=False)
        (w_k): Linear(in_features=576, out_features=192, bias=False)
        (w_v): Linear(in_features=576, out_features=192, bias=False)
        (rl_projection): Linear(in_features=576, out_features=576, bias=False)
        (rope): RotaryPositionalEmbeddings()
      )
      (mlp): SwiGLUFeedForward(
        (w_gate): Linear(in_features=576, out_features=1536, bias=False)
        (w_up): Linear(in_features=576, out_features=1536, bias=False)
        (rl_projection): Linear(in_features=1536, out_features=576, bias=False)
        (dropout): Dropout(p=0.0, inplace=False)
      )
    )
    (18): ModernLMDecoderBlock(
      (causal_self_attention): CausalMultiHeadSelfAttention(
        (attention_dropout): Dropout(p=0.0, inplace=False)
        (residual_dropout): Dropout(p=0.0, inplace=False)
        (w_q): Linear(in_features=576, out_features=576, bias=False)
        (w_k): Linear(in_features=576, out_features=192, bias=False)
        (w_v): Linear(in_features=576, out_features=192, bias=False)
        (rl_projection): Linear(in_features=576, out_features=576, bias=False)
        (rope): RotaryPositionalEmbeddings()
      )
      (mlp): SwiGLUFeedForward(
        (w_gate): Linear(in_features=576, out_features=1536, bias=False)
        (w_up): Linear(in_features=576, out_features=1536, bias=False)
        (rl_projection): Linear(in_features=1536, out_features=576, bias=False)
        (dropout): Dropout(p=0.0, inplace=False)
      )
    )
    (19): ModernLMDecoderBlock(
      (causal_self_attention): CausalMultiHeadSelfAttention(
        (attention_dropout): Dropout(p=0.0, inplace=False)
        (residual_dropout): Dropout(p=0.0, inplace=False)
        (w_q): Linear(in_features=576, out_features=576, bias=False)
        (w_k): Linear(in_features=576, out_features=192, bias=False)
        (w_v): Linear(in_features=576, out_features=192, bias=False)
        (rl_projection): Linear(in_features=576, out_features=576, bias=False)
        (rope): RotaryPositionalEmbeddings()
      )
      (mlp): SwiGLUFeedForward(
        (w_gate): Linear(in_features=576, out_features=1536, bias=False)
        (w_up): Linear(in_features=576, out_features=1536, bias=False)
        (rl_projection): Linear(in_features=1536, out_features=576, bias=False)
        (dropout): Dropout(p=0.0, inplace=False)
      )
    )
    (20): ModernLMDecoderBlock(
      (causal_self_attention): CausalMultiHeadSelfAttention(
        (attention_dropout): Dropout(p=0.0, inplace=False)
        (residual_dropout): Dropout(p=0.0, inplace=False)
        (w_q): Linear(in_features=576, out_features=576, bias=False)
        (w_k): Linear(in_features=576, out_features=192, bias=False)
        (w_v): Linear(in_features=576, out_features=192, bias=False)
        (rl_projection): Linear(in_features=576, out_features=576, bias=False)
        (rope): RotaryPositionalEmbeddings()
      )
      (mlp): SwiGLUFeedForward(
        (w_gate): Linear(in_features=576, out_features=1536, bias=False)
        (w_up): Linear(in_features=576, out_features=1536, bias=False)
        (rl_projection): Linear(in_features=1536, out_features=576, bias=False)
        (dropout): Dropout(p=0.0, inplace=False)
      )
    )
    (21): ModernLMDecoderBlock(
      (causal_self_attention): CausalMultiHeadSelfAttention(
        (attention_dropout): Dropout(p=0.0, inplace=False)
        (residual_dropout): Dropout(p=0.0, inplace=False)
        (w_q): Linear(in_features=576, out_features=576, bias=False)
        (w_k): Linear(in_features=576, out_features=192, bias=False)
        (w_v): Linear(in_features=576, out_features=192, bias=False)
        (rl_projection): Linear(in_features=576, out_features=576, bias=False)
        (rope): RotaryPositionalEmbeddings()
      )
      (mlp): SwiGLUFeedForward(
        (w_gate): Linear(in_features=576, out_features=1536, bias=False)
        (w_up): Linear(in_features=576, out_features=1536, bias=False)
        (rl_projection): Linear(in_features=1536, out_features=576, bias=False)
        (dropout): Dropout(p=0.0, inplace=False)
      )
    )
    (22): ModernLMDecoderBlock(
      (causal_self_attention): CausalMultiHeadSelfAttention(
        (attention_dropout): Dropout(p=0.0, inplace=False)
        (residual_dropout): Dropout(p=0.0, inplace=False)
        (w_q): Linear(in_features=576, out_features=576, bias=False)
        (w_k): Linear(in_features=576, out_features=192, bias=False)
        (w_v): Linear(in_features=576, out_features=192, bias=False)
        (rl_projection): Linear(in_features=576, out_features=576, bias=False)
        (rope): RotaryPositionalEmbeddings()
      )
      (mlp): SwiGLUFeedForward(
        (w_gate): Linear(in_features=576, out_features=1536, bias=False)
        (w_up): Linear(in_features=576, out_features=1536, bias=False)
        (rl_projection): Linear(in_features=1536, out_features=576, bias=False)
        (dropout): Dropout(p=0.0, inplace=False)
      )
    )
    (23): ModernLMDecoderBlock(
      (causal_self_attention): CausalMultiHeadSelfAttention(
        (attention_dropout): Dropout(p=0.0, inplace=False)
        (residual_dropout): Dropout(p=0.0, inplace=False)
        (w_q): Linear(in_features=576, out_features=576, bias=False)
        (w_k): Linear(in_features=576, out_features=192, bias=False)
        (w_v): Linear(in_features=576, out_features=192, bias=False)
        (rl_projection): Linear(in_features=576, out_features=576, bias=False)
        (rope): RotaryPositionalEmbeddings()
      )
      (mlp): SwiGLUFeedForward(
        (w_gate): Linear(in_features=576, out_features=1536, bias=False)
        (w_up): Linear(in_features=576, out_features=1536, bias=False)
        (rl_projection): Linear(in_features=1536, out_features=576, bias=False)
        (dropout): Dropout(p=0.0, inplace=False)
      )
    )
    (24): ModernLMDecoderBlock(
      (causal_self_attention): CausalMultiHeadSelfAttention(
        (attention_dropout): Dropout(p=0.0, inplace=False)
        (residual_dropout): Dropout(p=0.0, inplace=False)
        (w_q): Linear(in_features=576, out_features=576, bias=False)
        (w_k): Linear(in_features=576, out_features=192, bias=False)
        (w_v): Linear(in_features=576, out_features=192, bias=False)
        (rl_projection): Linear(in_features=576, out_features=576, bias=False)
        (rope): RotaryPositionalEmbeddings()
      )
      (mlp): SwiGLUFeedForward(
        (w_gate): Linear(in_features=576, out_features=1536, bias=False)
        (w_up): Linear(in_features=576, out_features=1536, bias=False)
        (rl_projection): Linear(in_features=1536, out_features=576, bias=False)
        (dropout): Dropout(p=0.0, inplace=False)
      )
    )
    (25): ModernLMDecoderBlock(
      (causal_self_attention): CausalMultiHeadSelfAttention(
        (attention_dropout): Dropout(p=0.0, inplace=False)
        (residual_dropout): Dropout(p=0.0, inplace=False)
        (w_q): Linear(in_features=576, out_features=576, bias=False)
        (w_k): Linear(in_features=576, out_features=192, bias=False)
        (w_v): Linear(in_features=576, out_features=192, bias=False)
        (rl_projection): Linear(in_features=576, out_features=576, bias=False)
        (rope): RotaryPositionalEmbeddings()
      )
      (mlp): SwiGLUFeedForward(
        (w_gate): Linear(in_features=576, out_features=1536, bias=False)
        (w_up): Linear(in_features=576, out_features=1536, bias=False)
        (rl_projection): Linear(in_features=1536, out_features=576, bias=False)
        (dropout): Dropout(p=0.0, inplace=False)
      )
    )
    (26): ModernLMDecoderBlock(
      (causal_self_attention): CausalMultiHeadSelfAttention(
        (attention_dropout): Dropout(p=0.0, inplace=False)
        (residual_dropout): Dropout(p=0.0, inplace=False)
        (w_q): Linear(in_features=576, out_features=576, bias=False)
        (w_k): Linear(in_features=576, out_features=192, bias=False)
        (w_v): Linear(in_features=576, out_features=192, bias=False)
        (rl_projection): Linear(in_features=576, out_features=576, bias=False)
        (rope): RotaryPositionalEmbeddings()
      )
      (mlp): SwiGLUFeedForward(
        (w_gate): Linear(in_features=576, out_features=1536, bias=False)
        (w_up): Linear(in_features=576, out_features=1536, bias=False)
        (rl_projection): Linear(in_features=1536, out_features=576, bias=False)
        (dropout): Dropout(p=0.0, inplace=False)
      )
    )
    (27): ModernLMDecoderBlock(
      (causal_self_attention): CausalMultiHeadSelfAttention(
        (attention_dropout): Dropout(p=0.0, inplace=False)
        (residual_dropout): Dropout(p=0.0, inplace=False)
        (w_q): Linear(in_features=576, out_features=576, bias=False)
        (w_k): Linear(in_features=576, out_features=192, bias=False)
        (w_v): Linear(in_features=576, out_features=192, bias=False)
        (rl_projection): Linear(in_features=576, out_features=576, bias=False)
        (rope): RotaryPositionalEmbeddings()
      )
      (mlp): SwiGLUFeedForward(
        (w_gate): Linear(in_features=576, out_features=1536, bias=False)
        (w_up): Linear(in_features=576, out_features=1536, bias=False)
        (rl_projection): Linear(in_features=1536, out_features=576, bias=False)
        (dropout): Dropout(p=0.0, inplace=False)
      )
    )
    (28): ModernLMDecoderBlock(
      (causal_self_attention): CausalMultiHeadSelfAttention(
        (attention_dropout): Dropout(p=0.0, inplace=False)
        (residual_dropout): Dropout(p=0.0, inplace=False)
        (w_q): Linear(in_features=576, out_features=576, bias=False)
        (w_k): Linear(in_features=576, out_features=192, bias=False)
        (w_v): Linear(in_features=576, out_features=192, bias=False)
        (rl_projection): Linear(in_features=576, out_features=576, bias=False)
        (rope): RotaryPositionalEmbeddings()
      )
      (mlp): SwiGLUFeedForward(
        (w_gate): Linear(in_features=576, out_features=1536, bias=False)
        (w_up): Linear(in_features=576, out_features=1536, bias=False)
        (rl_projection): Linear(in_features=1536, out_features=576, bias=False)
        (dropout): Dropout(p=0.0, inplace=False)
      )
    )
    (29): ModernLMDecoderBlock(
      (causal_self_attention): CausalMultiHeadSelfAttention(
        (attention_dropout): Dropout(p=0.0, inplace=False)
        (residual_dropout): Dropout(p=0.0, inplace=False)
        (w_q): Linear(in_features=576, out_features=576, bias=False)
        (w_k): Linear(in_features=576, out_features=192, bias=False)
        (w_v): Linear(in_features=576, out_features=192, bias=False)
        (rl_projection): Linear(in_features=576, out_features=576, bias=False)
        (rope): RotaryPositionalEmbeddings()
      )
      (mlp): SwiGLUFeedForward(
        (w_gate): Linear(in_features=576, out_features=1536, bias=False)
        (w_up): Linear(in_features=576, out_features=1536, bias=False)
        (rl_projection): Linear(in_features=1536, out_features=576, bias=False)
        (dropout): Dropout(p=0.0, inplace=False)
      )
    )
  )
  (lm_head): Linear(in_features=576, out_features=49152, bias=False)
)
Compiling the model
Model has 134.48M parameters
Estimated FLOPs per token (fwd+bwd): 1.23e+09
GPU peak FLOPS (bf16): 1.65e+14
[step 5 / 3814] loss: 11.2102 | throughput: 143192.5 tokens/s | grad_norm: 4.5166 | mfu: 53.4% | token_seen: 2.62e+06
[step 10 / 3814] loss: 11.0563 | throughput: 142635.9 tokens/s | grad_norm: 4.4328 | mfu: 53.2% | token_seen: 5.24e+06
…
