…
er': True, 'is_local_master': True}
Using device: cuda
Set float32 matmul precision to high
Effective batch size: 256 (micro_batch_size=4, gradient_accum_step=32, num_devices=2)
Tokens per forward/backward pass: 524288
Total tokens in training dataset: 2004991326
Total tokens in validation dataset: 101807253
Wandb logging enabled. project: modern-lm, name: v16-b8-g32-s2048-2B-wsd-muon-soft_capping-optimized-new_data-swiglu-rope-smollm, id: ib1kz3e5
Mixed precision training is enabled with bf16
USE_FLASH_ATTN is set, trying to use flash attention if available
Model: ModernLM(
  (token_embedding): Embedding(49152, 768)
  (decoder_blocks): Sequential(
    (0): ModernLMDecoderBlock(
      (causal_self_attention): CausalMultiHeadSelfAttention(
        (attention_dropout): Dropout(p=0.0, inplace=False)
        (residual_dropout): Dropout(p=0.0, inplace=False)
        (w_q): Linear(in_features=768, out_features=768, bias=False)
        (w_k): Linear(in_features=768, out_features=768, bias=False)
        (w_v): Linear(in_features=768, out_features=768, bias=False)
        (rl_projection): Linear(in_features=768, out_features=768, bias=False)
        (rope): RotaryPositionalEmbeddings()
      )
      (mlp): SwiGLUFeedForward(
        (w_gate): Linear(in_features=768, out_features=2048, bias=False)
        (w_up): Linear(in_features=768, out_features=2048, bias=False)
        (rl_projection): Linear(in_features=2048, out_features=768, bias=False)
        (dropout): Dropout(p=0.0, inplace=False)
      )
    )
    (1): ModernLMDecoderBlock(
      (causal_self_attention): CausalMultiHeadSelfAttention(
        (attention_dropout): Dropout(p=0.0, inplace=False)
        (residual_dropout): Dropout(p=0.0, inplace=False)
        (w_q): Linear(in_features=768, out_features=768, bias=False)
        (w_k): Linear(in_features=768, out_features=768, bias=False)
        (w_v): Linear(in_features=768, out_features=768, bias=False)
        (rl_projection): Linear(in_features=768, out_features=768, bias=False)
        (rope): RotaryPositionalEmbeddings()
      )
      (mlp): SwiGLUFeedForward(
        (w_gate): Linear(in_features=768, out_features=2048, bias=False)
        (w_up): Linear(in_features=768, out_features=2048, bias=False)
        (rl_projection): Linear(in_features=2048, out_features=768, bias=False)
        (dropout): Dropout(p=0.0, inplace=False)
      )
    )
    (2): ModernLMDecoderBlock(
      (causal_self_attention): CausalMultiHeadSelfAttention(
        (attention_dropout): Dropout(p=0.0, inplace=False)
        (residual_dropout): Dropout(p=0.0, inplace=False)
        (w_q): Linear(in_features=768, out_features=768, bias=False)
        (w_k): Linear(in_features=768, out_features=768, bias=False)
        (w_v): Linear(in_features=768, out_features=768, bias=False)
        (rl_projection): Linear(in_features=768, out_features=768, bias=False)
        (rope): RotaryPositionalEmbeddings()
      )
      (mlp): SwiGLUFeedForward(
        (w_gate): Linear(in_features=768, out_features=2048, bias=False)
        (w_up): Linear(in_features=768, out_features=2048, bias=False)
        (rl_projection): Linear(in_features=2048, out_features=768, bias=False)
        (dropout): Dropout(p=0.0, inplace=False)
      )
    )
    (3): ModernLMDecoderBlock(
      (causal_self_attention): CausalMultiHeadSelfAttention(
        (attention_dropout): Dropout(p=0.0, inplace=False)
        (residual_dropout): Dropout(p=0.0, inplace=False)
        (w_q): Linear(in_features=768, out_features=768, bias=False)
        (w_k): Linear(in_features=768, out_features=768, bias=False)
        (w_v): Linear(in_features=768, out_features=768, bias=False)
        (rl_projection): Linear(in_features=768, out_features=768, bias=False)
        (rope): RotaryPositionalEmbeddings()
      )
      (mlp): SwiGLUFeedForward(
        (w_gate): Linear(in_features=768, out_features=2048, bias=False)
        (w_up): Linear(in_features=768, out_features=2048, bias=False)
        (rl_projection): Linear(in_features=2048, out_features=768, bias=False)
        (dropout): Dropout(p=0.0, inplace=False)
      )
    )
    (4): ModernLMDecoderBlock(
      (causal_self_attention): CausalMultiHeadSelfAttention(
        (attention_dropout): Dropout(p=0.0, inplace=False)
        (residual_dropout): Dropout(p=0.0, inplace=False)
        (w_q): Linear(in_features=768, out_features=768, bias=False)
        (w_k): Linear(in_features=768, out_features=768, bias=False)
        (w_v): Linear(in_features=768, out_features=768, bias=False)
        (rl_projection): Linear(in_features=768, out_features=768, bias=False)
        (rope): RotaryPositionalEmbeddings()
      )
      (mlp): SwiGLUFeedForward(
        (w_gate): Linear(in_features=768, out_features=2048, bias=False)
        (w_up): Linear(in_features=768, out_features=2048, bias=False)
        (rl_projection): Linear(in_features=2048, out_features=768, bias=False)
        (dropout): Dropout(p=0.0, inplace=False)
      )
    )
    (5): ModernLMDecoderBlock(
      (causal_self_attention): CausalMultiHeadSelfAttention(
        (attention_dropout): Dropout(p=0.0, inplace=False)
        (residual_dropout): Dropout(p=0.0, inplace=False)
        (w_q): Linear(in_features=768, out_features=768, bias=False)
        (w_k): Linear(in_features=768, out_features=768, bias=False)
        (w_v): Linear(in_features=768, out_features=768, bias=False)
        (rl_projection): Linear(in_features=768, out_features=768, bias=False)
        (rope): RotaryPositionalEmbeddings()
      )
      (mlp): SwiGLUFeedForward(
        (w_gate): Linear(in_features=768, out_features=2048, bias=False)
        (w_up): Linear(in_features=768, out_features=2048, bias=False)
        (rl_projection): Linear(in_features=2048, out_features=768, bias=False)
        (dropout): Dropout(p=0.0, inplace=False)
      )
    )
    (6): ModernLMDecoderBlock(
      (causal_self_attention): CausalMultiHeadSelfAttention(
        (attention_dropout): Dropout(p=0.0, inplace=False)
        (residual_dropout): Dropout(p=0.0, inplace=False)
        (w_q): Linear(in_features=768, out_features=768, bias=False)
        (w_k): Linear(in_features=768, out_features=768, bias=False)
        (w_v): Linear(in_features=768, out_features=768, bias=False)
        (rl_projection): Linear(in_features=768, out_features=768, bias=False)
        (rope): RotaryPositionalEmbeddings()
      )
      (mlp): SwiGLUFeedForward(
        (w_gate): Linear(in_features=768, out_features=2048, bias=False)
        (w_up): Linear(in_features=768, out_features=2048, bias=False)
        (rl_projection): Linear(in_features=2048, out_features=768, bias=False)
        (dropout): Dropout(p=0.0, inplace=False)
      )
    )
    (7): ModernLMDecoderBlock(
      (causal_self_attention): CausalMultiHeadSelfAttention(
        (attention_dropout): Dropout(p=0.0, inplace=False)
        (residual_dropout): Dropout(p=0.0, inplace=False)
        (w_q): Linear(in_features=768, out_features=768, bias=False)
        (w_k): Linear(in_features=768, out_features=768, bias=False)
        (w_v): Linear(in_features=768, out_features=768, bias=False)
        (rl_projection): Linear(in_features=768, out_features=768, bias=False)
        (rope): RotaryPositionalEmbeddings()
      )
      (mlp): SwiGLUFeedForward(
        (w_gate): Linear(in_features=768, out_features=2048, bias=False)
        (w_up): Linear(in_features=768, out_features=2048, bias=False)
        (rl_projection): Linear(in_features=2048, out_features=768, bias=False)
        (dropout): Dropout(p=0.0, inplace=False)
      )
    )
    (8): ModernLMDecoderBlock(
      (causal_self_attention): CausalMultiHeadSelfAttention(
        (attention_dropout): Dropout(p=0.0, inplace=False)
        (residual_dropout): Dropout(p=0.0, inplace=False)
        (w_q): Linear(in_features=768, out_features=768, bias=False)
        (w_k): Linear(in_features=768, out_features=768, bias=False)
        (w_v): Linear(in_features=768, out_features=768, bias=False)
        (rl_projection): Linear(in_features=768, out_features=768, bias=False)
        (rope): RotaryPositionalEmbeddings()
      )
      (mlp): SwiGLUFeedForward(
        (w_gate): Linear(in_features=768, out_features=2048, bias=False)
        (w_up): Linear(in_features=768, out_features=2048, bias=False)
        (rl_projection): Linear(in_features=2048, out_features=768, bias=False)
        (dropout): Dropout(p=0.0, inplace=False)
      )
    )
    (9): ModernLMDecoderBlock(
      (causal_self_attention): CausalMultiHeadSelfAttention(
        (attention_dropout): Dropout(p=0.0, inplace=False)
        (residual_dropout): Dropout(p=0.0, inplace=False)
        (w_q): Linear(in_features=768, out_features=768, bias=False)
        (w_k): Linear(in_features=768, out_features=768, bias=False)
        (w_v): Linear(in_features=768, out_features=768, bias=False)
        (rl_projection): Linear(in_features=768, out_features=768, bias=False)
        (rope): RotaryPositionalEmbeddings()
      )
      (mlp): SwiGLUFeedForward(
        (w_gate): Linear(in_features=768, out_features=2048, bias=False)
        (w_up): Linear(in_features=768, out_features=2048, bias=False)
        (rl_projection): Linear(in_features=2048, out_features=768, bias=False)
        (dropout): Dropout(p=0.0, inplace=False)
      )
    )
    (10): ModernLMDecoderBlock(
      (causal_self_attention): CausalMultiHeadSelfAttention(
        (attention_dropout): Dropout(p=0.0, inplace=False)
        (residual_dropout): Dropout(p=0.0, inplace=False)
        (w_q): Linear(in_features=768, out_features=768, bias=False)
        (w_k): Linear(in_features=768, out_features=768, bias=False)
        (w_v): Linear(in_features=768, out_features=768, bias=False)
        (rl_projection): Linear(in_features=768, out_features=768, bias=False)
        (rope): RotaryPositionalEmbeddings()
      )
      (mlp): SwiGLUFeedForward(
        (w_gate): Linear(in_features=768, out_features=2048, bias=False)
        (w_up): Linear(in_features=768, out_features=2048, bias=False)
        (rl_projection): Linear(in_features=2048, out_features=768, bias=False)
        (dropout): Dropout(p=0.0, inplace=False)
      )
    )
    (11): ModernLMDecoderBlock(
      (causal_self_attention): CausalMultiHeadSelfAttention(
        (attention_dropout): Dropout(p=0.0, inplace=False)
        (residual_dropout): Dropout(p=0.0, inplace=False)
        (w_q): Linear(in_features=768, out_features=768, bias=False)
        (w_k): Linear(in_features=768, out_features=768, bias=False)
        (w_v): Linear(in_features=768, out_features=768, bias=False)
        (rl_projection): Linear(in_features=768, out_features=768, bias=False)
        (rope): RotaryPositionalEmbeddings()
      )
      (mlp): SwiGLUFeedForward(
        (w_gate): Linear(in_features=768, out_features=2048, bias=False)
        (w_up): Linear(in_features=768, out_features=2048, bias=False)
        (rl_projection): Linear(in_features=2048, out_features=768, bias=False)
        (dropout): Dropout(p=0.0, inplace=False)
      )
    )
  )
  (lm_head): Linear(in_features=768, out_features=49152, bias=False)
)
Compiling the model
Model has 122.68M parameters
Estimated FLOPs per token (fwd+bwd): 9.63e+08
GPU peak FLOPS (bf16): 1.65e+14
[step 5 / 3814] loss: 10.8817 | throughput: 190188.8 tokens/s | grad_norm: 9.5305 | mfu: 55.4% | token_seen: 2.62e+06
[step 10 / 3814] loss: 10.7088 | throughput: 189933.6 tokens/s | grad_norm: 9.7896 | mfu: 55.3% | token_seen: 5.24e+06
…
